checkpoint/demonstration/model_final.bin (torch, 473501 bytes, 22 tensors)

feature.seq.0.weight f4 [128, 8]
000000 65 07 18 be dd 40 38 3d 35 46 a3 3d b1 f5 3a 3c
       -0.14846571 0.044983733 0.07972375 0.011411116
000010 08 6e 1c 3f 46 64 2a 3e 7d 18 b9 3c 9b bf 0b be
       0.61105394 0.16639814 0.022594685 -0.1364731
000020 14 ec 22 bc 83 74 05 be 59 4c e2 bd 2b 3d 00 be
       -0.009943981 -0.13032727 -0.110497184 -0.12523334
000030 26 0c a2 3e a3 27 fa bd 88 da 05 3d 00 be 87 bc
       0.31649894 -0.12214591 0.03267911 -0.016570091
000040 36 e6 99 bc 56 75 f8 bd ee 69 50 3e 6b 1e 89 be
       -0.018786531 -0.12131755 0.20352909 -0.2678102
000050 f7 2d 8c bd ce 55 34 be e9 bc 74 3e 35 eb 0e 3d
       -0.068447046 -0.17610857 0.23900189 0.03489228
000060 8d a8 2d bd c2 ec 15 be 40 ab da bd a8 fc 44 bc
       -0.04239707 -0.14641097 -0.106771946 -0.012023129
000070 d7 32 af bd cd 5b 1c be e1 c4 f8 3d d0 32 dd 3d
       -0.08554619 -0.15269394 0.12146927 0.10800707
000080 bf 68 c4 3d 5c a4 92 3d 69 3f f4 3d b5 f4 fb 3d
       0.09590291 0.07160255 0.11926157 0.123025335
000090 c4 9f 7c bd 07 25 48 bd 9a 82 bc bd 51 8e f7 bd
       -0.061675802 -0.048863437 -0.09204598 -0.120876916
0000a0 11 35 92 bd 56 53 93 3d 60 be 0c 3d ab 70 17 3d
       -0.07139028 0.071936294 0.034361243 0.036972683
0000b0 1e 88 83 3e b2 72 31 3e ff 57 36 3c 86 11 19 3e
       0.25689787 0.17328909 0.011129378 0.14948091
0000c0 a6 b2 b4 3d 72 e0 07 3d 35 ef 69 3d f2 99 4f 3e
       0.08823137 0.033173032 0.05711289 0.20273569
0000d0 0c 77 8e 3e 5d 1c 6d 3d 54 23 d2 3c a0 19 06 3e
       0.278252 0.057888377 0.025651611 0.13095713
0000e0 57 dd 93 bd 1b 73 92 bd 84 29 2f bd 76 0e 7b 3e
       -0.072199516 -0.07150861 -0.0427642 0.24517235
0000f0 76 28 ca bd 90 6a 33 bd 28 9c 15 3e 2e 92 b2 bc
       -0.098709986 -0.043802798 0.1461035 -0.02179822
000100 2e d6 65 bc 70 dc 1a 3e f9 e5 13 3e 48 e5 2c 3e
       -0.014028115 0.15123153 0.14443196 0.16884339
000110 31 64 45 3d 5a 5f 06 3e 7b 18 0a bd b2 c3 83 bc
       0.048191253 0.13122311 -0.033714753 -0.016084526
000120 ac b7 c7 be 4c 33 90 3d 4f 34 1b 3d 29 17 68 bd
       -0.39007318 0.07041034 0.037891682 -0.056662712
000130 3e a6 10 bd 07 12 1e 3e e1 5f 96 be d4 21 71 bd
       -0.03531479 0.15436564 -0.29370025 -0.05887015
000140 02 6a 71 3c 5c d4 39 be be 59 78 be 3d 6b 0e 3d
       0.014734747 -0.18147415 -0.24252984 0.03477024
000150 93 e6 34 bc a7 6d 79 be 77 35 18 3e bc f0 4e be
       -0.011041301 -0.24358235 0.14864145 -0.2020902
000160 b3 20 a0 3e 45 72 b6 3d f1 47 b3 bd 17 52 63 3d
       0.31274948 0.08908514 -0.08753956 0.05549821
000170 1e 6d bb bd b6 13 23 3d 80 9a 84 3e 4f 77 b3 3d
       -0.09151672 0.03981372 0.25899124 0.08762991
000180 d9 77 41 bd 47 03 38 3d 04 47 2b bd d8 06 9c bc
       -0.047233436 0.044925 -0.041815773 -0.019046232
000190 cc 40 10 be c6 42 d6 3d 29 45 84 3d 47 b0 a1 3d
       -0.14087218 0.10461955 0.06458504 0.0789495
0001a0 2b 34 40 3e 87 2d d0 bd 6b 7e b8 bd 14 c4 91 bc
       0.187699 -0.10164934 -0.09008487 -0.017793693
0001b0 7d 41 ec bd 3c 85 72 bd 61 7d 81 3e f6 c7 36 3e
       -0.115359284 -0.059209093 0.2529097 0.17849717
0001c0 82 d2 1c be 81 ba 3a be 78 49 c7 bb f3 fd 3c 3e
       -0.15314677 -0.18235208 -0.006081756 0.18456249
0001d0 b9 d2 12 3e c8 98 bf bd 0e 24 39 be c8 61 8e bc
       0.14338197 -0.093553126 -0.1808016 -0.01738061
0001e0 7b 43 42 3e 62 ac 17 be d9 ba e1 3a dd 8a 4d be
       0.18971054 -0.14811853 0.0017221823 -0.20072503
0001f0 d2 02 5e 3d 73 5f d0 3c 96 97 c1 bd 1e 5b 13 be
       0.05420191 0.025436139 -0.09452741 -0.14390227
000200 46 ad 1a bd 88 1b d5 bd ad 68 bc 3d fa 80 75 bd
       -0.037762903 -0.10405642 0.09199653 -0.059937455
000210 de 59 64 3e 47 cc 27 be 26 2a 8c 3d 40 fe 28 3d
       0.22299907 -0.1638652 0.06843977 0.041258097
000220 c1 69 38 bd 9f 27 39 bd b7 d2 ab bc dc d5 92 bd
       -0.04502273 -0.0452038 -0.0209745 -0.07169697
000230 ec 4d 82 bd 47 3f 54 3e ee c3 ee bd d0 03 bb 3b
       -0.06362519 0.20727263 -0.11658464 0.0057072416
000240 1f f3 7d 3d 61 a0 2f 3d 1c 5a 15 3e 46 b9 9e 3d
       0.061999436 0.04287756 0.14585155 0.07750182
000250 93 07 1a bc 91 3a 30 bd a6 cf f8 bb d0 aa 3c 3e
       -0.00940122 -0.043024603 -0.007593113 0.18424535
000260 3d 5a cd 3c 35 0d 3f bc 0b 9e da bd f3 1c 7c 3e
       0.025067443 -0.011660864 -0.106746756 0.24620418
000270 e2 af 62 bd 7b d1 04 bc ab 60 35 bd d0 ab d5 3c
       -0.055343516 -0.008106585 -0.044281643 0.026082903
000280 5d 4e 2d 3d ef 29 c4 bc 90 c7 86 be 5f 0a 20 be
       0.04231106 -0.023945777 -0.2632413 -0.15628956
000290 c2 80 c0 3c 18 a3 29 3e 13 28 05 3c 1d c8 7f 3d
       0.023498897 0.16566122 0.00812723 0.062446702
0002a0 b7 a3 03 3e 0d 3d c3 bb d8 aa 0e be ef 31 47 3b
       0.12855421 -0.0059582056 -0.13932359 0.0030394753
0002b0 34 a5 26 3d a9 c9 eb 3c bb d6 b1 bc e7 82 39 bc
       0.040684894 0.028782682 -0.021708837 -0.011322713
0002c0 24 ce 8c bc 6a 62 02 be 85 89 2a 3d 8a 9d aa bd
       -0.01718814 -0.12732854 0.041635055 -0.083308294
0002d0 6b 1c f9 be 92 c0 94 3d 34 72 ec bc 6b ed ac bd
       -0.48654494 0.07263292 -0.02886305 -0.084437214
0002e0 80 4b 0e bd 3f 79 70 3d 71 17 c5 3b 76 81 ea 3a
       -0.03473997 0.05870938 0.0060147573 0.0017891366
0002f0 61 4e 03 3f 8f 05 59 3e 2d 1b 01 bc f5 11 25 bd
       0.5129147 0.21193527 -0.007880014 -0.04030033
000300 3a 51 80 bd 30 da a0 bd cb e2 9a bc 29 68 c2 bd
       -0.06265493 -0.07854116 -0.018906971 -0.09492523
000310 90 97 35 be 59 39 59 3d 26 f3 ec bd fd 69 ad bd
       -0.17733598 0.053033207 -0.115698144 -0.08467481
000320 3f 12 8c bd a2 72 82 39 0a 8b fe bd 63 21 28 3d
       -0.06839418 0.0002488094 -0.12428863 0.041047465
000330 fe b4 be bd 18 03 be bd fc e9 a0 bb 1a 4e c0 3d
       -0.09311865 -0.09277934 -0.0049107056 0.09389897
000340 67 7f 1b 3d f0 0e 04 3e c4 ff 0a 3b d1 2e 87 3e
       0.037963297 0.12896323 0.0021209577 0.26402906
000350 55 b5 0d be d4 bb 88 3d a2 8e 8a bc 37 3f e5 bc
       -0.13838704 0.0667645 -0.016913716 -0.027984245
000360 97 de d5 bb 20 64 76 bd c8 b1 bb 3c 88 fe ea bd
       -0.006526779 -0.06015408 0.022911921 -0.11474329
000370 43 81 ad 3e a5 9f 89 bb 83 58 ef bc 56 e5 61 3c
       0.3388768 -0.0041999393 -0.02921701 0.013787588
000380 c7 35 bc 3e 67 c9 83 bd 30 ba db 3d 9b 39 51 bb
       0.3675978 -0.06434899 0.10728872 -0.0031925205
000390 5e 20 45 be 1e 05 e8 3d a3 f6 55 bd b3 18 81 3d
       -0.19250628 0.11329101 -0.052237164 0.06303539
0003a0 76 93 b6 bd a7 9a cc 3c 1f 14 03 3d 5a fc 73 be
       -0.08914845 0.024976088 0.03200161 -0.23826733
0003b0 ca 27 22 3e 3b b8 bb bb 87 ff f5 3d a9 2b d2 bb
       0.15835491 -0.005728749 0.120116286 -0.006413896
0003c0 7d 49 ca bd 72 c7 58 3d 79 99 87 bc b5 33 d8 bd
       -0.09877298 0.05292458 -0.016552674 -0.10556737
0003d0 59 d1 d4 bb 1c 20 2c bd 68 86 c9 bd cb b9 17 bd
       -0.0064946827 -0.04202281 -0.09840089 -0.03704242
0003e0 4d f8 d2 3e ac d7 75 3d b9 1d 47 3e 83 ae 7f 3b
       0.41205063 0.060020134 0.19444932 0.003901393
0003f0 d9 33 a3 bc 63 75 10 3e 41 7e b2 3d 1a af db bd
       -0.019922184 0.1410728 0.08715487 -0.10726757

feature.seq.0.bias f4 [128]
000000 93 51 b2 3c 9a f1 8d bc fe db 96 3d 99 49 45 bd
       0.021767413 -0.017327119 0.07366179 -0.04816589
000010 a5 85 49 3d ca 80 64 bd 11 8f 32 bc 91 95 02 bd
       0.04919972 -0.055786885 -0.0108983675 -0.03188092
000020 9a 2a 72 3b 5d f9 85 3d 02 0a 8c bd 60 16 15 3d
       0.0036951662 0.06541703 -0.06837846 0.03639829
000030 56 e2 23 bc 0a 89 3d 3d d0 0b 45 3c 62 d3 55 3d
       -0.010002693 0.04627327 0.012026742 0.052203543
000040 95 fc 46 bd 12 a4 d7 bc 52 c9 ac 3d e4 8e b0 bc
       -0.048580725 -0.026323352 0.08436836 -0.02155251
000050 14 5d 6e bd 69 9e 83 bd 1e 17 bd 3c d7 c7 f9 3c
       -0.058194235 -0.06426699 0.023082312 0.030490799
000060 6e ca 8c bc c0 b0 43 bd 85 cd 6e b9 95 b9 84 3d
       -0.01718637 -0.047775984 -0.0002277401 0.064807095
000070 f4 17 6e bc 76 65 37 bc ae 7f 08 3d fe 2c 34 3e
       -0.014532078 -0.011193624 0.03332489 0.17595288
000080 22 ef 88 bc 5d 72 eb bc 8d 7c 9d bc 92 1d 8b bd
       -0.01671559 -0.028741056 -0.01922443 -0.067927495
000090 ff bb ec 3b cb d7 c0 bb f1 82 53 bd ba c8 24 bd
       0.0072245593 -0.0058850995 -0.051638547 -0.04023049
0000a0 d9 c8 10 3d a8 72 ba bb 52 e9 2b bc 4d bf c9 3b
       0.035347793 -0.0056899376 -0.01049264 0.006156838
0000b0 ab 01 da bc 3d ac 29 3d 0e 1e 4a 3c 40 34 13 bc
       -0.026612123 0.041424025 0.012336267 -0.008984625
0000c0 dc 85 60 3c e0 f3 2c bd 5a 6a 03 3d 49 a6 87 bc
       0.01370379 -0.042224765 0.032083847 -0.016558783
0000d0 bd d1 2b bb b1 ee 3e 3c 68 34 93 3b c2 da c2 ba
       -0.0026217543 0.011653588 0.0044923313 -0.001486622
0000e0 95 bf 77 bd 9e ac 89 3b 0a 7e 14 bd f4 91 5b 3b
       -0.06048544 0.004201486 -0.036253013 0.0033503743
0000f0 b0 8d fc bc 7f 82 0a bd 7e 80 43 bc aa 9b 10 be
       -0.03082928 -0.033815857 -0.01193249 -0.14121881
000100 0c b6 31 3d 29 b4 ad 3c b1 93 94 3d 8a c0 4a bb
       0.043386504 0.021204071 0.072547324 -0.0030937516
000110 f1 53 37 bd 0c 4b 06 be 6d 09 2d 3c 35 74 91 bc
       -0.044757787 -0.13114566 0.010561329 -0.017755607
000120 da 1c 81 bd 2d de 03 3d 11 94 99 3d 72 b2 bc bb
       -0.06304331 0.032194305 0.074989446 -0.005758577
000130 8b a7 29 bd 81 cf 61 bd 1a 7c f3 bc 42 d9 b7 bc
       -0.041419547 -0.05512953 -0.029722262 -0.022442464
000140 9e 72 5e 3c 33 3f ca bc d0 4c 47 be 8f e0 2d 3d
       0.013577132 -0.024688339 -0.19462895 0.042450484
000150 06 c0 81 bc f2 99 8a 3c 0f 5a 9a 3c 67 63 10 bc
       -0.015838634 0.01691911 0.018841771 -0.008812762
000160 06 7c e0 3d ce 97 94 3d 4d cc bf 3c b7 59 c0 3d
       0.109611556 0.07255517 0.023412848 0.09392112
000170 b2 d7 10 3d c4 bd 67 bc 4f a4 8a bc 17 05 34 3c
       0.035361953 -0.014144365 -0.016924052 0.010987542
000180 f8 5e d7 bb 77 4f 46 3c b7 53 f7 3d fc 47 25 3b
       -0.0065726005 0.012103907 0.12076514 0.0025219908
000190 d1 f6 10 bd 07 d7 32 bc 2a 65 84 bb d0 b6 36 bc
       -0.035391632 -0.010915524 -0.00404038 -0.011151984
0001a0 19 15 06 3d d8 8e 27 bd 9e 2a 6a bd b7 fa 63 bd
       0.032734964 -0.04090771 -0.05716955 -0.055659022
0001b0 9e 25 f5 3b 45 25 61 be fe 6e 8c 3d 64 47 ad 3c
       0.007481291 -0.21986873 0.068571076 0.021152206
0001c0 16 93 5c bd 56 71 8a 3d a6 2b 38 bc 79 41 4d bd
       -0.05385121 0.06759898 -0.011240875 -0.050111268
0001d0 76 3d 19 bc 11 9a b2 3b 42 80 6f bd 58 05 0f 3d
       -0.009353032 0.005450495 -0.058471926 0.034917206
0001e0 8d 3b 28 3d aa 24 20 3d 5b 71 3c bd f2 88 b8 bc
       0.041072417 0.039097466 -0.04600654 -0.022526238
0001f0 93 e2 38 3d 72 6a 3a 3b 9b 37 95 bc 85 86 f7 bb
       0.045137953 0.0028444794 -0.018214991 -0.007553878

feature.seq.2.weight f4 [128, 128]
000000 ff 72 3c 3c 3e 54 ea 3d f7 f2 28 be 47 9f 31 be
       0.011502027 0.11441849 -0.16498934 -0.17345916
000010 e0 5d c4 3d 66 0b cb 3d 6b 45 17 bd d5 15 ef 3c
       0.09588218 0.099142835 -0.036931437 0.029185215
000020 f3 4b 93 bd 63 5c 4a 3c bd 17 5d bd 14 f0 b8 3d
       -0.071922205 0.012351128 -0.053977717 0.09030166
000030 32 a4 c0 bd 5a 45 6f 3d aa 33 9a 3d 4f e4 ad bc
       -0.09406318 0.05841575 0.075293854 -0.02122703
000040 65 60 fc bd 06 ff b0 3d e9 5f 94 3d a7 9f 86 bd
       -0.12323073 0.08642392 0.07244856 -0.0657342
000050 c0 8c 86 bd 7a 76 7d 3e 77 0e 24 be 5e f7 45 be
       -0.06569815 0.24752226 -0.16021143 -0.19332644
000060 82 45 b2 3d 30 5e be bd ba e6 0d be 81 28 a1 3d
       0.08704664 -0.092953086 -0.13857546 0.07869054
000070 0a ae f2 3d 98 7f 22 bd 6c c7 31 bd 27 15 e4 3a
       0.118496016 -0.039672464 -0.043403074 0.0017401323
000080 34 0c 87 3d 27 d4 c1 bd fc 25 52 be e9 f7 10 bd
       0.065941244 -0.09464293 -0.20522302 -0.035392676
000090 2b fe 32 3d c0 1c 0e be 71 0e c5 bb 37 08 1b 3d
       0.043699425 -0.13878155 -0.0060136844 0.03784963
0000a0 2c 45 8d bd d3 ea b0 3d d0 ce 11 3d 60 8b 36 3d
       -0.06897959 0.08638539 0.035597622 0.044566512
0000b0 13 b7 2a be 20 92 d0 bc d5 7b 0b be 19 00 16 3d
       -0.166714 -0.025460303 -0.13621457 0.036621187
0000c0 bc 32 07 bc 50 11 97 bc 25 a1 3b 3d f1 1f cb 3d
       -0.008251842 -0.018440872 0.045807976 0.09918202
0000d0 64 16 e9 bb 5d 3d 11 3d 34 f8 31 3e 1b 42 e6 3d
       -0.007113265 0.03545891 0.17379838 0.11243077
0000e0 99 91 14 3c 3d bd 3f bb 05 eb 08 bc 35 97 c3 3d
       0.009067916 -0.0029257082 -0.008356814 0.09550325
0000f0 8c 08 13 3c 5b c0 8b 3a 37 96 c1 bd 7e 25 54 bd
       0.008974206 0.0010662185 -0.09452479 -0.051793568
000100 3e d5 bb 3a 3f 8f 9d 3c a3 c2 02 3e ad 26 05 3e
       0.0014330519 0.019233344 0.1276956 0.13003035
000110 f5 50 ed bc e7 07 86 3d 30 d2 b8 bd 03 64 a1 3d
       -0.028969267 0.06544476 -0.09024465 0.07880404
000120 ba 8f d1 bd 8e 1c 11 3e a7 98 63 bd b7 4c d9 bd
       -0.10232492 0.14171049 -0.055565502 -0.10610335
000130 dd ca 92 bd e6 1b cc 3d 8d 44 ae 3d 03 9f 26 bd
       -0.07167599 0.09966259 0.08509169 -0.04067899
000140 68 c7 f0 bc 37 85 85 3d 25 98 c7 bc 2d d8 cc 3c
       -0.02939196 0.06519549 -0.02436454 0.025005424
000150 d3 e9 28 bc 43 ec b9 3d d2 cb 03 3d 5c c8 ad bc
       -0.010309654 0.090782665 0.0321768 -0.021213703
000160 36 94 6c bc 5a 81 f8 3d e7 8a 66 bd ef 88 41 3c
       -0.014439633 0.12134047 -0.05628481 0.011812433
000170 15 0b 5f bd c7 be ee 3d 0f a6 18 3e 94 95 bb bd
       -0.054453928 0.11657482 0.14907096 -0.09159389
000180 10 a0 d2 bd d7 98 44 be c6 48 82 bd 57 77 87 bd
       -0.10284436 -0.19198929 -0.06361537 -0.06614559
000190 af 49 a6 bd 0d 00 d7 3c ff 48 15 be c7 38 3f 3e
       -0.08119523 0.026245141 -0.14578627 0.18674003
0001a0 27 ef 70 3b 50 55 fa bd df d1 18 3e 80 88 95 3d
       0.003676364 -0.12223303 0.1492381 0.07301426
0001b0 1d 89 0e 3b f5 48 6d 3e 21 c3 71 3d a7 1b 41 be
       0.0021749206 0.23172362 0.05902398 -0.18858205
0001c0 93 d2 55 3c e6 d8 98 3d f2 27 dd 3c d3 30 ce bc
       0.013050693 0.07463245 0.026996586 -0.025169766
0001d0 f4 94 40 bd 89 61 f9 3c e3 f0 c4 bc 39 c9 28 3d
       -0.047017053 0.030442016 -0.024040645 0.041207526
0001e0 78 8d 83 bc f0 7c 45 3d fe b4 f3 3c 8e 82 ef bc
       -0.016058668 0.048214853 0.02974939 -0.029237058
0001f0 48 e7 1e 3e c1 d0 f1 bb 0a 1f 6d 3d d0 66 1d 3d
       0.15517914 -0.0073796217 0.05789093 0.038428128
000200 d9 d7 d0 3b e2 5a 27 bd 64 9c 37 bc 96 d6 03 3e
       0.0063733873 -0.040858157 -0.01120672 0.12874827
000210 b5 1c c7 3d 1c 7a 05 be cb 84 29 be 46 c4 75 be
       0.09722272 -0.13034862 -0.16554563 -0.24000654
000220 65 94 1b be 5a cc 34 bd 0e 3d c0 3d 49 64 ff bd
       -0.15193327 -0.044140197 0.09386645 -0.124703
000230 49 e7 37 3e 97 2e a1 bd 64 83 b3 bd 83 65 b2 3d
       0.17959322 -0.078702144 -0.08765295 0.08710768
000240 67 ac ff bd 8e d8 7b bd b4 96 c2 bd 52 da dc bd
       -0.12484055 -0.06148582 -0.095014006 -0.10783829
000250 76 1a 93 3d 4d fd e6 ba 49 9f d5 3c 6c 38 5f be
       0.071827814 -0.0017623097 0.02607693 -0.21798867
000260 47 98 31 be 2d 29 55 bd 2c d4 42 bb a3 a0 4b be
       -0.17343245 -0.05204122 -0.0029728515 -0.19885497
000270 96 8c 8a 3d 84 6c 8c 3c 87 e2 37 bd c2 62 8d bd
       0.06765096 0.017141588 -0.044893768 -0.06903602
000280 45 70 41 bd 57 a5 c0 3d 85 e7 bd bc 2f d2 a8 3d
       -0.04722621 0.09406536 -0.023181686 0.08243214
000290 99 72 09 3e 5b 98 11 be 67 4a 7f bc e3 3a 50 bc
       0.13422622 -0.14218275 -0.015581704 -0.012709352
0002a0 28 9a a1 3d 97 b1 96 bd de eb 1e be c7 15 24 bd
       0.07890731 -0.07358091 -0.15519664 -0.04005983
0002b0 f0 0e 90 bd 30 56 bf 3d c0 13 26 3e c9 e5 97 3b
       -0.07034099 0.09342611 0.16218472 0.004635547
0002c0 52 08 50 3d 80 1a 02 3e aa c7 ff 3d 8a 2b 94 3b
       0.050789185 0.12705421 0.12489255 0.004521792
0002d0 c8 b3 2f bb fd 3b ca 3d a3 2d 81 3d 58 06 13 be
       -0.0026810039 0.09874723 0.06307533 -0.14357889
0002e0 6d d7 0d 3e e9 66 e7 bd d1 7a 4d bd 45 63 1f bd
       0.1385171 -0.112989254 -0.050165955 -0.03891303
0002f0 18 25 68 3c cb 3b cc bc 36 86 5b 3c 85 51 03 3e
       0.014169 -0.024930855 0.013398698 0.12824066
000300 66 34 18 3e 05 83 eb 3d 75 76 f5 3c c8 44 98 bd
       0.14863738 0.11499599 0.029963711 -0.07434994
000310 ef 22 22 3d 4a de 8f bd 4d 63 78 3b 4c 01 f4 bd
       0.039584097 -0.0702482 0.0037900985 -0.1191431
000320 47 f9 9a 3d c7 ff 64 3e 33 7b 18 3c d5 cf 8d bc
       0.07567077 0.22363196 0.009306717 -0.017311016
000330 77 35 77 3d 0b ce 72 bd 03 c2 44 be 61 c7 19 bd
       0.060353722 -0.05927853 -0.19214635 -0.03754366
000340 80 2a 4a 3d 22 98 a3 3c 5e 42 a8 3d 66 08 d1 bc
       0.049356937 0.019970004 0.082157835 -0.0255167
000350 c0 99 63 3b 16 68 b9 bc 72 a6 02 3a a4 5b 88 3d
       0.0034729093 -0.02263264 0.0004983909 0.06658104
000360 29 5f d4 3b bc ed 4e bd 0e f7 a8 bd 1d 3f e2 3d
       0.0064810705 -0.05051969 -0.08250247 0.11047194
000370 fa d2 9c bd 6e 9d 45 be d4 03 55 3d 25 fc a5 3c
       -0.07657428 -0.19298336 0.052005604 0.020261833
000380 1d 30 26 be 92 e1 62 be 07 75 0b 3e 33 63 b0 3d
       -0.16229291 -0.22156361 0.13618861 0.08612671
000390 bd 1e 8e bd 73 24 bd 3b 29 79 a1 bb fe 91 92 bd
       -0.069394566 0.0057721674 -0.0049277735 -0.07156752
0003a0 12 8b 1f 3c 44 7e 35 be 73 16 a9 bd a0 02 8a bc
       0.009737747 -0.17723948 -0.08256235 -0.016846955
0003b0 18 ff a2 3e f0 b4 ab 3c 25 a0 8e 3d 01 66 b5 3d
       0.31835246 0.020960301 0.06964139 0.08857346
0003c0 c5 c1 8d bd 75 69 55 3d 58 21 92 bc 75 59 69 3e
       -0.06921724 0.052102525 -0.017838165 0.22788031
0003d0 46 f2 83 3d 89 62 2b bd c2 4d 6c 3d 2a 4f a4 bd
       0.06442694 -0.041842017 0.057691343 -0.08022912
0003e0 98 d7 6f bd 73 4a d3 3d 5d fc 4e 3c c9 99 9e bb
       -0.058555216 0.103169344 0.01263341 -0.00484011
0003f0 14 26 cd 3d ad 0d 87 3d 7e b6 96 bd 8a 88 bf 3d
       0.100170285 0.06594405 -0.07359026 0.09352215

feature.seq.2.bias f4 [128]
000000 29 f1 97 bc b0 08 94 ba 3b 07 d9 bb 31 1f c9 bb
       -0.018547611 -0.0011294093 -0.0066231764 -0.0061377515
000010 bf e1 b6 bc 0b 81 4d 3d 3a 42 9f bc 53 a8 4d bb
       -0.022324441 0.050171893 -0.019440759 -0.0031380847
000020 1f 0f 30 3a 67 31 e7 39 22 58 18 3a 07 26 bf 3c
       0.00067161204 0.0004409656 0.00058114727 0.023333563
000030 27 4e c8 bc 0d c0 a8 3c 07 48 bb bc d5 10 3f bb
       -0.024451328 0.02059939 -0.022861494 -0.002915432
000040 47 d7 47 bc b3 24 eb 3c 23 a6 12 bd 88 85 27 bd
       -0.012197322 0.028704023 -0.03580297 -0.04089883
000050 dd ae a7 bd a6 f0 7a 3c f9 e8 a2 bc aa 69 09 bd
       -0.081876494 0.015316164 -0.01988648 -0.033548035
000060 f4 3b 8e bd d1 8c 0f 3c 37 12 f0 3a e4 f1 09 bc
       -0.06945029 0.008761601 0.0018315975 -0.008419488
000070 2f 53 cb 3c 35 52 4e 3c 6c 48 d7 3b 11 22 24 bd
       0.024819938 0.012592842 0.0065699127 -0.04007155
000080 ab b0 e2 bb b7 c6 25 3c 9b 7f 0f 3b 46 80 b9 3c
       -0.006918033 0.010118178 0.0021896127 0.022644173
000090 d8 9b de 3c a1 8d 18 bc 74 1b ab bc 3f 26 13 3d
       0.027173921 -0.009311111 -0.020887114 0.035925146
0000a0 ce f8 84 bb fe 16 30 bc 2e ea b9 bb 09 70 55 bc
       -0.00405798 -0.010747669 -0.0056736683 -0.0130272
0000b0 f0 f4 89 3c 66 94 5c bd 00 2c de 3b dc 99 c2 bc
       0.016840428 -0.05385246 0.0067801476 -0.023755006
0000c0 e4 04 c5 3b 57 06 93 bd a0 f9 c8 bc 45 0c 49 3c
       0.006012546 -0.071789436 -0.024533093 0.012270992
0000d0 19 e5 a3 bb d5 51 08 bc 51 7e c9 bb a3 20 e8 bc
       -0.005001676 -0.0083202915 -0.0061490913 -0.028335875
0000e0 68 05 3b 3c d5 34 15 3d 88 06 d5 bc f1 08 8f bc
       0.011414863 0.036427338 -0.02600409 -0.017460318
0000f0 a8 c0 46 bc a0 2e 8c bc ec 40 15 bd 85 e0 0e 3d
       -0.012130894 -0.017112076 -0.036438867 0.034882087
000100 7d 68 15 bd 3a 61 ab bc 90 3f a0 3b b2 fa 25 3d
       -0.0364766 -0.020920385 0.0048903897 0.040522285
000110 f6 d8 93 bc f0 da 3b 3c 2e 78 f4 bc 2a da 89 3d
       -0.018047791 0.011465773 -0.029842462 0.067310646
000120 fc 08 25 bd 12 82 ac 3c a0 4e 22 bb 9e a5 14 bb
       -0.04029177 0.021058116 -0.0024766102 -0.0022681723
000130 f2 78 35 3d 65 5e db bc c7 1b de bb 19 f5 a7 3c
       0.044304796 -0.02677841 -0.0067782137 0.020502614
000140 a9 91 bb 3c 9b b6 eb 3c 69 c5 41 bd 7a 28 a7 bc
       0.022896605 0.028773597 -0.047307406 -0.020405043
000150 a1 7b 95 bc 98 22 a2 bc d7 5c 89 bc 6e 8d 9b 3c
       -0.018247427 -0.019791886 -0.016767902 0.018988337
000160 a1 d8 e1 3c ec 99 77 bc df b3 9d bc 8d 3c b4 3a
       0.027569117 -0.015112381 -0.019250808 0.0013750956
000170 44 95 69 bc 41 ff 09 bc de fa d0 3c 87 06 b0 bc
       -0.014256779 -0.008422674 0.025510248 -0.021487487
000180 27 46 b6 3c 82 3d ec 3c 82 38 5d bb 99 0a 71 bc
       0.022250248 0.028837923 -0.0033755605 -0.014711999
000190 62 aa 41 bd 54 31 e1 3c 09 9d 04 bd 08 6c e0 ba
       -0.04728163 0.027489342 -0.032376323 -0.001712204
0001a0 f5 f0 b9 bc 66 8f af bc 70 22 33 3d a3 6e b5 bc
       -0.022697905 -0.021430682 0.043734014 -0.022147482
0001b0 39 a6 05 3d c0 77 2c bc 65 72 0a bd 2c 59 75 3b
       0.032629225 -0.0105265975 -0.0338005 0.0037437184
0001c0 a4 d5 39 3d 13 d1 eb bc fd ac 80 bc 76 32 a8 bc
       0.04536976 -0.028786218 -0.015707487 -0.020531874
0001d0 c9 ce 89 3c ac a0 9a bc 9d f2 08 3c 60 81 09 bc
       0.016822236 -0.018875442 0.008358625 -0.008392662
0001e0 b3 1f 89 3c a4 ae cb 3b 13 f1 14 bd 95 af 4c bd
       0.016738748 0.006215887 -0.03636272 -0.049972136
0001f0 73 f6 95 3c 79 6c e0 3c 63 be c2 3c d3 cc d8 3c
       0.018305993 0.027395474 0.023772424 0.026464855

attention.seq.seq.0.weight f4 [128, 128]
000000 64 4f 07 be 1e b0 09 be 8a ba 1f be db eb 22 3e
       -0.13213879 -0.1344609 -0.15598503 0.15910284
000010 71 b6 f7 bc 8a 0c f0 3d ce 8d 28 bd 4e 31 1f 3e
       -0.030238362 0.11721142 -0.04115086 0.15546152
000020 45 d3 b5 bc b5 b5 8f 3c ef cd 1f bc 58 60 d0 3c
       -0.022195468 0.0175427 -0.009753688 0.025436565
000030 6c 93 09 bd bc a4 e2 bd e1 d4 b7 bd 36 2a 80 3d
       -0.033587858 -0.11066577 -0.0897615 0.06258051
000040 ac 6b 1b bd af 90 8c bc b2 cb 07 3d 63 cd 3f bd
       -0.03794448 -0.017158834 0.033153243 -0.04682673
000050 5f 1c 28 bc 1e 0d a3 3c 63 3a f9 3c 76 5e 88 bd
       -0.01026067 0.019903716 0.030423349 -0.06658642
000060 4a f7 b0 3d 0a 62 e1 3b f7 25 86 3e 5f b0 04 3c
       0.08640917 0.0068781422 0.2620084 0.008098691
000070 7d 1d 89 bd e5 05 bd 3c 1a 32 cb bd 96 ec e7 3c
       -0.066950776 0.0230741 -0.099216655 0.028311055
000080 e2 b8 2b 39 d0 04 3d 3e 61 5a 37 3c 3e c7 62 be
       0.00016376705 0.18458867 0.011190982 -0.22146317
000090 56 21 ba bb 9c e5 b0 3c 8c 56 07 3e 63 a5 64 3d
       -0.0056802435 0.021593861 0.13216609 0.055821788
0000a0 ba 84 3f 3d c6 85 94 3d ed 12 27 3d d1 ed d5 bd
       0.046757437 0.07252078 0.040789533 -0.104457505
0000b0 25 16 bb 3d 8c 24 66 3e 16 28 9c bd 02 9f 52 3d
       0.09135083 0.22474879 -0.07624833 0.051421173
0000c0 db 4b 4d 3d 7f 8c 0a bc 9e 37 f6 3d 90 ab a5 3d
       0.05012117 -0.008456348 0.12022327 0.080893636
0000d0 23 fb 22 be dd ac 8d bd 2b a2 0a 3d cd 8a 1d bd
       -0.15916114 -0.06917737 0.03384606 -0.03846245
0000e0 28 fb d5 3c d9 29 c1 bd 26 b5 c3 3c d7 af 0f bd
       0.026120737 -0.0943181 0.02389009 -0.035079803
0000f0 0b cc d8 bd 8d ed 0d bd 6b 47 ea bd e4 77 cd bd
       -0.10585793 -0.034650374 -0.11439403 -0.10032633
000100 b3 ae 8c 3c 3d c2 53 bd 84 db 32 3e a4 21 86 bd
       0.017173147 -0.051698912 0.17466551 -0.06549385
000110 69 77 bb 3d a5 e7 96 3d 7a 8c 81 3d 8b ac 60 bc
       0.09153635 0.073684014 0.06325622 -0.013713012
000120 9f 60 16 bd 8b 6f 64 3d c7 4b cc 3b 4d 7d b8 bd
       -0.03671324 0.05577044 0.0062346193 -0.09008274
000130 81 8c ea bb 8e 61 9d 3d 61 6c 05 3d a9 b3 c0 bb
       -0.0071578627 0.07684623 0.03257406 -0.005880792
000140 0a 8e 63 3d d6 38 9a 3c 07 94 3d 3d 08 17 56 bd
       0.05555538 0.01882593 0.046283748 -0.052268058
000150 a4 48 c5 bc 3d 95 1f 3e 2b 5f 86 3d c3 5d fd bd
       -0.02408249 0.15584274 0.065611206 -0.12371399
000160 78 28 9c bb d3 fb b8 3b 8c 8b 0d bd f8 a1 b3 bc
       -0.0047655664 0.005645254 -0.03455691 -0.021927819
000170 5c ca cf bc 77 29 2e be 48 e9 5b 3e 75 67 31 be
       -0.025365047 -0.17008005 0.21475708 -0.17324622
000180 55 31 65 bd 80 06 97 3d de 32 23 bd b4 d1 1c bd
       -0.05595525 0.07374287 -0.039843433 -0.038285926
000190 f0 67 e7 3c fc 80 43 3c 19 27 a4 bd b0 bb f0 3d
       0.028247803 0.011932608 -0.0801527 0.117545485
0001a0 20 cb 90 3b 32 7b c8 bc c4 b4 1c be cb 60 b8 3d
       0.0044187456 -0.024472807 -0.15303332 0.09002837
0001b0 a0 c6 9a 3d 5f 87 fe bd 08 84 d4 bd c2 1e e0 bd
       0.07557416 -0.12428164 -0.103767455 -0.109433666
0001c0 57 6f 33 3e ca 8d 09 3d 75 73 31 3b 3e ef d1 3d
       0.17522942 0.033582486 0.0027076874 0.1025071
0001d0 23 a1 19 3d 35 66 14 be 6a b3 92 3d 7d 38 35 bd
       0.037507188 -0.14492114 0.07163127 -0.044243325
0001e0 17 24 c5 3d b6 e0 a0 bd fb a9 0f be 4c 7f 36 be
       0.09626024 -0.0785536 -0.14029686 -0.17821997
0001f0 99 81 6c bc 65 fc e8 3d e7 55 a5 3c e8 32 99 3d
       -0.014435195 0.113762654 0.020182563 0.07480413
000200 20 72 d8 3d 12 c3 c4 3d 1c 45 07 3d 16 88 30 3d
       0.105686426 0.09607519 0.033024892 0.04309853
000210 59 f4 b3 bd 49 8e b9 bc 4a 62 55 3d b8 33 96 3d
       -0.0878684 -0.022650855 0.05209569 0.07334083
000220 d8 3f 83 3d ab 15 22 3e 25 2e 47 3c e5 ba 06 3e
       0.064086616 0.15828578 0.012156998 0.13157232
000230 1a ff 1b bd c5 88 6a be 12 65 38 3d 1b 1a 36 bd
       -0.03808508 -0.22903736 0.045018263 -0.04445849
000240 e4 8a 56 3d 73 25 4e 3d f4 58 6b 3d 85 39 83 bc
       0.05237855 0.050328683 0.05745788 -0.016018638
000250 cc c0 97 3e d2 54 e1 bd 7f b6 dc 3d c5 d8 37 bd
       0.2963928 -0.11002506 0.10776996 -0.044884462
000260 81 cb 6e 3e 95 83 d5 3b 8f 5b 83 bd ce be d5 3c
       0.23319818 0.00651593 -0.06413948 0.02609196
000270 16 b5 3e bd 85 db 7d 3d 3b f9 23 3d 20 85 ec 3b
       -0.046559416 0.06197693 0.040032607 0.007218018
000280 aa c7 f3 bc 79 c3 e4 3c 65 79 06 be b8 26 a3 3a
       -0.029758293 0.02792524 -0.13132246 0.0012447452
000290 3b 3c c5 bd 41 b3 b4 bc af 2d be 3d e1 b9 09 bd
       -0.09630629 -0.022058131 0.09286057 -0.033624534
0002a0 bc f2 5e 3b fb 91 c2 3c 63 33 ed 3c 50 7b 62 3c
       0.0034019193 0.02375125 0.028955167 0.013823345
0002b0 2e e0 05 3e b9 5f 26 be c2 81 4e bd 4a a4 98 3d
       0.13073799 -0.16247453 -0.050416715 0.07453211
0002c0 69 77 1d 3d e5 c6 94 3e 72 94 10 bc ed 60 44 bd
       0.038443957 0.29057994 -0.008824455 -0.047943998
0002d0 01 a7 16 bd 89 47 84 bd 2b 4e 6f 3d 17 8b c4 3d
       -0.03678036 -0.06458957 0.058424156 0.09596842
0002e0 e6 fc 02 bd 21 a5 3e bd 49 c8 f6 3c f3 82 60 3d
       -0.031979464 -0.046544198 0.0301248 0.054812383
0002f0 7f db 9c 3d 54 87 d1 3d e3 d4 9a bd 16 c7 0c 3e
       0.07659053 0.1023089 -0.07560136 0.1374782
000300 d0 95 1f bc 71 31 e0 bb 82 66 7e bd 81 a3 b8 bd
       -0.009740308 -0.0068418314 -0.062109478 -0.09015561
000310 8f dd ea 3d c6 19 f2 3c 21 3c d1 bc 02 f0 c6 3b
       0.1146804 0.029553305 -0.025541367 0.0060710916
000320 02 2d a5 3c be d1 15 3d af d9 e2 3c 52 2c 18 be
       0.020163063 0.03657698 0.02769169 -0.14860657
000330 7b de 59 3d 6d f4 6d bd c3 6f 27 be b0 01 3d 3d
       0.05319069 -0.05809443 -0.16351227 0.046144187
000340 21 79 06 be e7 af 5c bd 02 cd 96 bd 41 33 9e 3d
       -0.13132145 -0.05387869 -0.07363321 0.0772462
000350 cd 7b 7f 3d 3f ce 5a be 3f 75 92 3d 3d d3 89 3d
       0.062373925 -0.21367739 0.07151269 0.06729744
000360 82 a2 8c 3d 4e 29 41 3e 13 43 82 bd 87 c0 00 3d
       0.068669334 0.18863413 -0.0636045 0.03143361
000370 f9 4b f9 3d 09 0f b4 3c 4f 37 86 bd cf 27 09 bc
       0.12172694 0.021979826 -0.06553518 -0.0083713075
000380 e0 01 07 be 94 7f f9 3d 62 4b 0b 3e ff 94 14 be
       -0.13184309 0.12182537 0.13602975 -0.14509962
000390 bd 6b 1f 3e 54 51 40 3d 1a 38 2e bd c6 6d 66 3d
       0.15568443 0.04695256 -0.04253397 0.05625703
0003a0 40 72 4b 3d 48 34 fb 3d aa 9e b8 bc ba cc 46 3c
       0.049669504 0.12265831 -0.022536594 0.012133772
0003b0 bb f9 4a 3a 57 1e 46 bd 66 d9 f1 3d 52 93 00 3c
       0.0007742901 -0.048368778 0.118090436 0.007847624
0003c0 03 3f e1 bc a9 15 d5 3d 8d ab d6 bd 9f 39 6d 3d
       -0.027495867 0.10404522 -0.104819395 0.05791628
0003d0 42 9b 19 3d 9c 2c c3 3c cb 3a aa 3d 45 37 c7 3d
       0.03750158 0.023824982 0.08311995 0.09727339
0003e0 ad ef 98 3d 5d 44 90 bd fb fb de bc 81 06 b8 bd
       0.074675895 -0.07044289 -0.027219763 -0.089856155
0003f0 da 3b e8 bd 73 1f 06 be 3c 86 93 bd fd 06 02 3e
       -0.11339541 -0.13097934 -0.072033376 0.12697978

attention.seq.seq.0.bias f4 [128]
000000 51 ae 04 bc 37 1e 24 bd 94 02 a3 bc 8e 9d 17 3d
       -0.008098201 -0.040067878 -0.01989869 0.03701549
000010 e6 c7 16 3a 09 7b 5a 3d 4c 3b 16 bd 1a a8 1b 3d
       0.0005751833 0.05333999 -0.036677644 0.03800211
000020 88 6e 40 3d fd 76 ab 3b b9 ac 85 3b bd 64 23 3d
       0.04698041 0.0052326904 0.004079428 0.039890993
000030 ab 90 ae 3d 05 29 f7 bc 7d 05 9b bd 88 1a 38 bd
       0.08523687 -0.030170927 -0.07569406 -0.044947177
000040 e9 52 54 3c c9 1a c3 3c d4 17 9c bc 9f 29 92 bd
       0.01295922 0.023816483 -0.01905433 -0.07136845
000050 2f fe ed 3b 92 9b 06 3d ad 5b 05 3d fe bf af bc
       0.007262967 0.032863207 0.032558132 -0.021453854
000060 8f f5 57 bc 13 ac fb 3d 69 e4 e6 bc 07 77 03 3c
       -0.013181104 0.1228868 -0.028185086 0.008023984
000070 6d b0 5d bc 6c 45 c4 3d 21 46 86 bc ee 36 05 bd
       -0.013530833 0.09583554 -0.016390862 -0.03252309
000080 b2 65 8d bc b9 fb 16 3d 07 85 50 bc fe b4 ea 3b
       -0.017260406 0.036861155 -0.012727029 0.007162689
000090 c5 60 88 bd 89 e8 66 bd ba 77 75 3c cd 95 5b 3d
       -0.06659082 -0.056374107 0.014982158 0.053609658
0000a0 b3 4b f9 bd 0d d0 9d bc 2a 3a 8d 3d b2 59 24 3d
       -0.121726416 -0.019264245 0.068958595 0.040124603
0000b0 c6 8c 22 bc 9c 0f 91 3d f5 ef 99 3d 7d 19 c4 bc
       -0.009921258 0.070830554 0.07516471 -0.023937935
0000c0 2b bc 31 bd 9d c8 86 3c 7f b5 a8 3c 69 c6 a9 3d
       -0.04339234 0.016453082 0.020594357 0.08289797
0000d0 b4 6e a1 3d eb 65 76 3c ac 69 81 3b 02 71 41 3d
       0.07882443 0.015038948 0.0039493646 0.047226913
0000e0 da e1 74 bd e9 7c ef bb b0 25 b5 3d 63 64 29 bd
       -0.0597857 -0.0073085916 0.08845079 -0.0413555
0000f0 37 f8 3c bd 07 c8 dc bc 4b 86 ae bd 70 8f 4a bd
       -0.046135154 -0.02695085 -0.08521708 -0.0494532
000100 73 3d ab bc bb e0 88 bc a0 0a b8 bc ec 9a 46 3d
       -0.020903325 -0.016708722 -0.022466004 0.04848759
000110 fb f0 5e 3d 5f 3a 38 bb ce b3 3c 3d 9a 23 c1 3d
       0.054429036 -0.0028110964 0.046069913 0.094306186
000120 9b 02 c6 bc af a1 d0 bc 18 04 d2 3d b3 7b 59 bd
       -0.024171164 -0.025467722 0.10254687 -0.053096484
000130 5e 3c d4 3c 7b c7 23 be b2 d4 6c bd 39 0b 0d 3c
       0.025907692 -0.15994065 -0.05782003 0.008608633
000140 be 7a bf bd 19 04 31 3d 26 19 e4 3c db e5 45 3d
       -0.09349583 0.0432168 0.027844023 0.04831491
000150 01 c7 0f 3e 56 c8 28 3d d9 8f 97 3c f0 28 92 3d
       0.14040758 0.04120668 0.01850121 0.071367145
000160 9d 8d e6 bd f7 30 46 bd 4a 1f 81 bc 17 74 23 bd
       -0.11257479 -0.04838654 -0.01576199 -0.039905634
000170 55 5e 78 3d 35 fb d4 bd 53 6d 00 bb ce 2a b8 bd
       0.060636837 -0.103994764 -0.0019596412 -0.08992539
000180 cb e4 a5 bd bf d4 f2 3d 94 06 aa 3d c1 1b a8 3b
       -0.081002794 0.11856984 0.08302036 0.0051302616
000190 a3 20 8e bc b0 3f 71 3c 1b 0d 53 bd 67 06 64 3d
       -0.017349547 0.014724657 -0.05152617 0.05567017
0001a0 51 bc 94 3c 92 34 88 bd 49 2c ab 3d 86 79 d7 bc
       0.018156203 -0.06650652 0.08358056 -0.026303064
0001b0 16 66 bd 3d 7f e9 5f 3d c8 52 86 bd a8 66 a3 3d
       0.09247987 0.05466604 -0.06558758 0.079785645
0001c0 8b fc fb bc 2e ab 60 bd 0c 74 88 bd 94 9a 4b bd
       -0.03076007 -0.05485075 -0.06662759 -0.049707964
0001d0 a8 2b 75 bb 1f 37 a9 3d a6 76 26 bd cf b9 4f 3c
       -0.0037410054 0.08262467 -0.040640496 0.012678578
0001e0 65 45 8c 39 07 a5 df 3c 76 66 30 bd 86 11 54 3d
       0.00026754584 0.02730037 -0.043066464 0.051774524
0001f0 a3 95 2a bd 65 ff 01 3c 6e 1c 0e bb 26 93 b1 bb
       -0.04164661 0.007934426 -0.0021684426 -0.005419153

attention.seq.seq.2.weight f4 [1, 128]
000000 43 75 99 3d 9c 93 33 bd ce 61 3a be 5f 12 1d be
       0.07493069 -0.043841943 -0.18201372 -0.1533904
000010 54 d2 3f be db c9 04 3e 1b 25 f7 bd 0f f8 72 be
       -0.18732578 0.12967627 -0.12067624 -0.2372744
000020 09 9f 80 3d 7d 3a 11 be 75 b4 d0 bd c1 6f 18 3e
       0.062803335 -0.14182468 -0.101906694 0.1488638
000030 ef 40 62 3e bc 76 26 3e cd 6e 08 be 6f 20 01 be
       0.22095083 0.16256231 -0.13323517 -0.12610029
000040 f7 a5 7b be 75 42 03 3e a7 2e 4b 3e 48 d6 e3 bc
       -0.2457503 0.1281832 0.19842015 -0.027812138
000050 90 1c 08 be cc 01 bb 3d dd ac 77 be da cd 52 3e
       -0.13292146 0.09131202 -0.24187036 0.20586339
000060 d1 91 98 3e b5 33 3a 3e ba 0f 0f bd 27 13 ef 3d
       0.2979875 0.18183787 -0.034927107 0.11673575
000070 49 a8 95 3e 3b 0c f7 3d fc 4c 33 3e 78 75 31 3e
       0.29229954 0.1206288 0.17509836 0.17329967
000080 6b 1e 65 be 21 ac f2 3d f0 ff 09 be d6 a3 8a be
       -0.22374885 0.11849237 -0.13476539 -0.27078122
000090 67 a7 4f 3e e6 5a 49 be 19 47 57 3e 94 69 d9 3d
       0.20278703 -0.19663581 0.21023215 0.106158406
0000a0 c4 62 78 be 43 70 14 be 5e ac 8f 3d 20 71 a1 be
       -0.24256426 -0.1449595 0.07015298 -0.3153162
0000b0 59 db 7b 3e c4 97 e8 3d b6 40 01 3e 57 91 37 3e
       0.24595393 0.11357072 0.12622342 0.17926537
0000c0 85 db 7b bd e6 f1 7f 3e 48 08 26 be 64 f3 28 3e
       -0.061488647 0.2499462 -0.16214097 0.16499096
0000d0 08 ff 98 3e e7 68 98 3e 6a 24 4d be 49 b0 65 be
       0.29882073 0.29767534 -0.20033422 -0.22430529
0000e0 d9 49 b3 3e 84 c0 b1 3d ed 48 48 3e 87 3d 1b be
       0.3501728 0.086792976 0.19559069 -0.1516019
0000f0 46 5f 4b bd e1 d9 20 3e 45 20 33 be 9f aa 85 3e
       -0.049651407 0.15708114 -0.17492779 0.26106736
000100 2c 4f 85 3e c6 a4 b9 bd 14 2e 88 3e 3d fa a3 be
       0.26036966 -0.09064631 0.26597655 -0.32026854
000110 da d9 89 3e 1a 2f e6 3d 9c d5 1f 3d 9f 9b 17 3e
       0.2692402 0.11239453 0.039022073 0.14805458
000120 2c 1d 05 be 1e b8 76 be 5f 71 51 3e 54 aa 94 bd
       -0.1299941 -0.24093673 0.20453404 -0.0725905
000130 d2 2b a9 3d 1e de 64 be 58 04 64 bd 87 e9 4e be
       0.08260311 -0.22350356 -0.055668205 -0.20206271
000140 20 e3 21 be b3 d5 1c 3e 07 72 bb be 90 97 82 be
       -0.15809298 0.15315895 -0.36610433 -0.25506258
000150 21 f3 ff 3d e1 01 a7 3e af 0e 89 3e c9 19 ab 3d
       0.12497545 0.3261862 0.26769015 0.083545275
000160 e7 57 c4 be d5 45 8e be ce e6 2d 3e b5 71 86 3e
       -0.38348314 -0.27787653 0.16982576 0.26258627
000170 62 15 b2 3d 3d fe 25 be 2a 66 50 3e 35 21 6b be
       0.08695485 -0.16210265 0.20351472 -0.22961886
000180 99 1e 03 be 4f c4 17 3e fa 23 0c 3e c4 1d 1b be
       -0.12804641 0.1482098 0.13685599 -0.15148073
000190 e3 32 f9 3d aa f9 41 be 81 ae 3e be 3a 31 89 3d
       0.12167909 -0.18942896 -0.18621255 0.06698842
0001a0 a5 7e 9c be d9 5d 96 bd da f0 a8 3d 8a b5 55 3e
       -0.30565372 -0.07342119 0.08249064 0.20870033
0001b0 63 c3 af 3d 2a 67 51 be 7c 4b 93 3e e5 2e b4 3d
       0.08582189 -0.2044951 0.28768528 0.08798007
0001c0 da ce 0f 3e 98 76 b4 bd 56 7c 96 bd ce b3 79 bd
       0.14043751 -0.088116825 -0.07347934 -0.06096249
0001d0 01 86 23 be ec 49 af 3d 85 88 34 3e 36 12 4b be
       -0.15969087 0.08559021 0.17630203 -0.19831166
0001e0 00 29 4d be 7c 28 3c 3e 9b 0d 9f 3e 20 64 73 be
       -0.20035172 0.18374819 0.31065068 -0.23768663
0001f0 c1 b0 6d bd 42 72 c1 3d 55 98 81 3e 3c 02 29 3e
       -0.058029894 0.09445621 0.25311533 0.16504759

feature2.seq.0.weight f4 [128, 9]
000000 20 41 4c bd 65 10 63 3e fc 6e 2e be 17 bf ea 3c
       -0.049866796 0.22174223 -0.17034525 0.028655572
000010 1d 47 a6 3d f1 c7 82 3d ee 31 e3 3b dc c0 bf bd
       0.081190325 0.06385792 0.0069334423 -0.09362957
000020 db 38 49 3d 31 20 1e 3d af e5 1f 3d 86 06 65 3c
       0.049126487 0.03860492 0.039037403 0.013978606
000030 60 40 7c bd 65 93 bd 3c b6 27 14 bd dd 7b b8 bd
       -0.06158483 0.023141572 -0.036170684 -0.09008
000040 ff 7a 2e be ab 77 42 3d 6c aa a3 bd fc 79 62 bd
       -0.17039107 0.047477406 -0.0799149 -0.055292115
000050 ac d6 ac 3d 12 da 25 be b5 e0 b6 3d 4a 6c f7 3d
       0.08439383 -0.16196468 0.08929578 0.120812014
000060 22 c8 0d be ca 2c 84 3d 9d 22 90 bc 1c cd c4 bc
       -0.13845876 0.06453855 -0.01759463 -0.024023585
000070 05 98 cf 3d fa 1f 1c bd 57 57 e1 bc 2c 94 e8 bc
       0.10136417 -0.038116433 -0.027507467 -0.028390966
000080 66 ac 3b bd 68 0f 4c bd e4 70 f2 bd e0 88 df 3d
       -0.04581871 -0.04981938 -0.118379384 0.10914779
000090 e7 8c 6a 3d 85 85 a1 3d 94 f0 e5 3c 22 8f 31 be
       0.05726328 0.07886795 0.028068818 -0.17339757
0000a0 61 52 84 bc 28 ce c1 bd 14 1a a6 3b 38 3c 9c bc
       -0.016152563 -0.09463149 0.0050690267 -0.019071683
0000b0 aa 81 00 bd ef 69 65 3d a4 9a 07 3e f0 4b 24 bd
       -0.031373657 0.05600923 0.13242584 -0.040111482
0000c0 6e 22 d3 3a aa a0 21 3d 75 6c 43 3d 2a 59 1b 3e
       0.0016108283 0.03945986 0.047710855 0.15170732
0000d0 5c f0 83 be 92 40 79 bd cc f5 67 3b 68 31 2e bd
       -0.25769317 -0.060852595 0.003539431 -0.042527586
0000e0 ff 7e 15 3e 95 51 6a bd 85 21 17 bd ad ec 92 bd
       0.14599226 -0.05720671 -0.0368972 -0.071740486
0000f0 e7 da 64 bd b5 58 d0 3d 82 6e 80 3b 11 97 e3 bd
       -0.055872824 0.101731695 0.0039194236 -0.11112798
000100 f2 14 0f 3e 4a fc 52 3d 64 88 c4 3b 88 5e ee bd
       0.13972834 0.051510133 0.0059977043 -0.11639124
000110 e6 ce 96 3c 14 e9 f9 3d 48 1f 5e 3d d4 5c c7 ba
       0.018409204 0.12202659 0.05422905 -0.001521016
000120 72 31 c9 bc 6a b1 5f 3e ad 87 cd 3d 90 b8 40 bd
       -0.02455971 0.21845022 0.10035644 -0.047051013
000130 1c 0b e6 3d 5e dc ea 3b e9 05 4c 3d b8 e5 48 3d
       0.11232588 0.007167383 0.049810324 0.049047202
000140 a7 3d eb bd 28 ce af 3c 88 c9 0d bd 1d 40 3c be
       -0.114863686 0.021460608 -0.034616023 -0.18383832
000150 63 a8 12 bd ff 6a 03 3d 13 cc 7b bd 51 1c 08 be
       -0.035805117 0.03208446 -0.061473917 -0.13292052
000160 ed e4 91 3c 86 f9 8d 3c 90 8f 54 3d 08 31 a2 3d
       0.017809356 0.017330896 0.051894724 0.07919508
000170 00 21 a4 ba d1 aa ea bd 3f be aa bd 2e 6c 39 be
       -0.0012522042 -0.11458362 -0.08337068 -0.18107674
000180 5b 80 06 be a7 eb b4 3c cc 9e 32 be b6 20 86 bd
       -0.13134901 0.022085024 -0.17443389 -0.06549208
000190 ed 40 16 be e1 d1 88 bc 87 de 56 bd 91 57 c2 bc
       -0.14673205 -0.01670164 -0.052458312 -0.023723396
0001a0 55 fd cc 3d f2 1e d4 3d e5 2e 86 bb 40 32 f2 3d
       0.10009257 0.10357465 -0.0040949457 0.11825991
0001b0 eb 11 ed 3d cc 66 2c bd 7e e7 06 3d c8 66 ad bd
       0.11575683 -0.042090222 0.032935612 -0.084668696
0001c0 ed 3b 1b be 4e 42 4f 3d f2 4f f5 bd 3a 0a a0 3c
       -0.15159579 0.050600342 -0.11978139 0.019536126
0001d0 40 68 89 b8 3a 0b da 3c 99 b2 67 3d b2 0a 86 3d
       -6.552087e-05 0.026616681 0.05656681 0.06545009
0001e0 d7 bc 08 3e d9 d4 01 bd f6 6d a0 3d 34 01 5d bb
       0.13353287 -0.031697128 0.078334734 -0.003372264
0001f0 b7 68 a6 bd c4 74 fa 3c 22 9c 8f 3d bf 02 47 3d
       -0.081254415 0.030573256 0.07012202 0.048586603
000200 68 79 02 bd 7e 6f 22 3d 5c 3a 03 3e 65 b9 5a bd
       -0.031854063 0.03965711 0.12815231 -0.053399462
000210 d9 4f 72 bb 3a e6 cb 3c 7b 0f b6 bd f4 5d 20 bc
       -0.0036973862 0.024890054 -0.088896714 -0.009788025
000220 0c 68 99 bc 33 28 49 3e 99 52 d8 3d 74 3b 07 3e
       -0.018726371 0.19644241 0.10562629 0.13206273
000230 a0 53 4a 3d 66 ee b7 3c 57 3f 23 be a5 07 3a be
       0.049396157 0.022452544 -0.15942131 -0.18166979
000240 85 68 e8 3d fa 7e d0 bd 17 a8 2f 3e 4d 65 c1 3d
       0.113480605 -0.10180469 0.17153965 0.0944315
000250 68 2f c4 bb 7a 6e 5b bd 0f b2 0a 3e 1c 94 e1 3d
       -0.0059870966 -0.053572156 0.13544486 0.11014578
000260 7c 4c 27 bc 4c e4 b3 bd 0c 87 cb bd 60 01 14 3e
       -0.010211106 -0.087837785 -0.099378675 0.1445365
000270 5b 9e d5 bd 83 8a 46 3d b4 1e ac bd 35 cb 2e bd
       -0.104305945 0.04847194 -0.08404294 -0.042674262
000280 60 57 c8 bd b3 ff 05 3e c0 75 e6 3c 18 35 27 3b
       -0.097822905 0.13085823 0.02813232 0.0025513824
000290 53 cc db 3c db e6 ca bc 48 91 48 3c d7 37 1e be
       0.026830828 -0.024768284 0.012241669 -0.15450989
0002a0 48 99 3a 3e 6a cc 55 bc f0 c1 ae 3c 78 e3 56 bd
       0.18222535 -0.013049224 0.021332711 -0.052463025
0002b0 c6 f8 e9 bc 1a 99 1d bd b7 96 e7 bc 0f 9f 96 3d
       -0.028561007 -0.038476087 -0.028270109 0.07354557
0002c0 99 ee 35 3e a0 42 90 3d 74 0a 90 3d 5c 43 c4 3c
       0.17766799 0.07043958 0.07033244 0.0239579
0002d0 00 87 9b bd 0e fe 3f 3d 33 94 ae 3c 57 f1 42 3c
       -0.075941086 0.046873145 0.021310901 0.01189836
0002e0 e8 bc 19 3e c0 4a 9d bd b3 6d f5 bd 8c ff 38 bd
       0.15013468 -0.07680273 -0.11983814 -0.045165583
0002f0 f0 c6 ac bc e6 52 8b 3e 30 3e 11 bb b6 30 9b 3c
       -0.021090955 0.27211684 -0.002216231 0.018944126
000300 26 69 40 3c c8 89 09 bb f1 f0 24 bd aa ee 54 be
       0.011743819 -0.0020986665 -0.040268842 -0.20794168
000310 ee 55 79 3d ba b5 3d 3d 5c 09 11 bd 95 47 39 3c
       0.060872965 0.046315886 -0.035409316 0.01130857
000320 29 ca 0c 3e 52 a0 3e bc 03 e8 ad bd e7 99 b4 bb
       0.13748993 -0.011634903 -0.08491518 -0.0055115107
000330 a6 05 3e 3d f1 a0 d2 bd 35 3a 1f bc ea 87 e2 bc
       0.046392106 -0.102846034 -0.0097184675 -0.0276527
000340 5f a7 b6 bd 7b d8 32 3e ab f1 a8 3d 6e fa 30 bc
       -0.08918642 0.17465393 0.082492195 -0.010801895
000350 54 0b f7 bc ee 6b 56 bb 4c bf 8d bd f4 3b 3e 3e
       -0.030156769 -0.003271814 -0.069212526 0.18577558
000360 ea 4d e3 3d 60 6c 45 3b f6 f4 a8 bd 9b de 76 be
       0.11098845 0.003012441 -0.082498476 -0.24108355
000370 6e 91 89 3c 89 a2 b7 bc d0 d9 37 3e 8a 71 7a 3c
       0.01679298 -0.02241637 0.17954183 0.015285859
000380 3a 94 6d bc b4 76 78 bd d3 16 65 bd 0c fb 6b 3b
       -0.014500672 -0.06066008 -0.05592997 0.003600779
000390 84 27 1f 3d 74 41 c8 bd 7e e5 7c 3e a5 e3 b9 bb
       0.038856044 -0.09778109 0.2469692 -0.0056728893
0003a0 68 db 7d bc 89 30 b4 bd 2b 69 10 be d7 64 08 be
       -0.015494205 -0.0879832 -0.14102618 -0.13319717
0003b0 43 b7 f9 3d 22 03 0b 3d d9 c4 84 3e cb 42 77 bd
       0.121931575 0.033938535 0.25931433 -0.060366433
0003c0 a4 d0 99 3c e5 fe 26 be a3 e1 8c bc 32 09 24 3e
       0.018776245 -0.16308172 -0.017197436 0.16019133
0003d0 98 a5 01 3c cb 28 3b be ab e6 7f bd 57 c2 4b 3d
       0.007913016 -0.1827728 -0.06247584 0.049745884
0003e0 bb dd f0 3c 3f 9e ab 3d dd 56 40 bd af 9b dd bd
       0.029402604 0.083797924 -0.04695784 -0.1082071
0003f0 0a e4 be 3c f9 6e db 3d 10 16 a5 ba 37 80 37 bd
       0.023302097 0.10714526 -0.0012595076 -0.04480001

feature2.seq.0.bias f4 [128]
000000 00 00 00 00 00 00 00 00 00 00 00 00 00 00 00 00
       0.0 0.0 0.0 0.0
000010 00 00 00 00 00 00 00 00 00 00 00 00 00 00 00 00
       0.0 0.0 0.0 0.0
000020 00 00 00 00 00 00 00 00 00 00 00 00 00 00 00 00
       0.0 0.0 0.0 0.0
000030 00 00 00 00 00 00 00 00 00 00 00 00 00 00 00 00
       0.0 0.0 0.0 0.0
000040 00 00 00 00 00 00 00 00 00 00 00 00 00 00 00 00
       0.0 0.0 0.0 0.0
000050 00 00 00 00 00 00 00 00 00 00 00 00 00 00 00 00
       0.0 0.0 0.0 0.0
000060 00 00 00 00 00 00 00 00 00 00 00 00 00 00 00 00
       0.0 0.0 0.0 0.0
000070 00 00 00 00 00 00 00 00 00 00 00 00 00 00 00 00
       0.0 0.0 0.0 0.0
000080 00 00 00 00 00 00 00 00 00 00 00 00 00 00 00 00
       0.0 0.0 0.0 0.0
000090 00 00 00 00 00 00 00 00 00 00 00 00 00 00 00 00
       0.0 0.0 0.0 0.0
0000a0 00 00 00 00 00 00 00 00 00 00 00 00 00 00 00 00
       0.0 0.0 0.0 0.0
0000b0 00 00 00 00 00 00 00 00 00 00 00 00 00 00 00 00
       0.0 0.0 0.0 0.0
0000c0 00 00 00 00 00 00 00 00 00 00 00 00 00 00 00 00
       0.0 0.0 0.0 0.0
0000d0 00 00 00 00 00 00 00 00 00 00 00 00 00 00 00 00
       0.0 0.0 0.0 0.0
0000e0 00 00 00 00 00 00 00 00 00 00 00 00 00 00 00 00
       0.0 0.0 0.0 0.0
0000f0 00 00 00 00 00 00 00 00 00 00 00 00 00 00 00 00
       0.0 0.0 0.0 0.0
000100 00 00 00 00 00 00 00 00 00 00 00 00 00 00 00 00
       0.0 0.0 0.0 0.0
000110 00 00 00 00 00 00 00 00 00 00 00 00 00 00 00 00
       0.0 0.0 0.0 0.0
000120 00 00 00 00 00 00 00 00 00 00 00 00 00 00 00 00
       0.0 0.0 0.0 0.0
000130 00 00 00 00 00 00 00 00 00 00 00 00 00 00 00 00
       0.0 0.0 0.0 0.0
000140 00 00 00 00 00 00 00 00 00 00 00 00 00 00 00 00
       0.0 0.0 0.0 0.0
000150 00 00 00 00 00 00 00 00 00 00 00 00 00 00 00 00
       0.0 0.0 0.0 0.0
000160 00 00 00 00 00 00 00 00 00 00 00 00 00 00 00 00
       0.0 0.0 0.0 0.0
000170 00 00 00 00 00 00 00 00 00 00 00 00 00 00 00 00
       0.0 0.0 0.0 0.0
000180 00 00 00 00 00 00 00 00 00 00 00 00 00 00 00 00
       0.0 0.0 0.0 0.0
000190 00 00 00 00 00 00 00 00 00 00 00 00 00 00 00 00
       0.0 0.0 0.0 0.0
0001a0 00 00 00 00 00 00 00 00 00 00 00 00 00 00 00 00
       0.0 0.0 0.0 0.0
0001b0 00 00 00 00 00 00 00 00 00 00 00 00 00 00 00 00
       0.0 0.0 0.0 0.0
0001c0 00 00 00 00 00 00 00 00 00 00 00 00 00 00 00 00
       0.0 0.0 0.0 0.0
0001d0 00 00 00 00 00 00 00 00 00 00 00 00 00 00 00 00
       0.0 0.0 0.0 0.0
0001e0 00 00 00 00 00 00 00 00 00 00 00 00 00 00 00 00
       0.0 0.0 0.0 0.0
0001f0 00 00 00 00 00 00 00 00 00 00 00 00 00 00 00 00
       0.0 0.0 0.0 0.0
